8.DDQN/agent.pth (torch, 5151 bytes, 4 tensors)

layers.0.weight f4 [128, 4]
0	0x3eb220f2	0.3479076
1	0xbe53b8f6	-0.20676026
2	0x3eed4c2b	0.46347174
3	0x3e5808fe	0.2109718
4	0xbcef6137	-0.02922116
5	0xbeefde2a	-0.46849185
6	0x3d82381f	0.063583605
7	0x3eb6c1f1	0.3569484
8	0xbee0bdc2	-0.43894774
9	0xbead933e	-0.339014
10	0x3eae19d8	0.34004092
11	0x3e23bdd4	0.15990382
12	0x3df273eb	0.11838516
13	0xbed21fd0	-0.41039896
14	0xbe99050e	-0.2988667
15	0xbebb5243	-0.36586198
16	0xbed50d54	-0.4161173
17	0x3eb63796	0.35589284
18	0xbe084482	-0.13307384
19	0xbea035f6	-0.3129117
20	0x3d895190	0.0670501
21	0x3e935e05	0.2878267
22	0x3ee40292	0.4453321
23	0xbedef1b3	-0.43543777
24	0x3e01525c	0.12629074
25	0x3e473f05	0.19457634
26	0x3e355683	0.17708783
27	0x3e98f243	0.2987233
28	0xbcdec727	-0.027194573
29	0xbeae0597	-0.3398864
30	0xbef03514	-0.46915495
31	0xbc994441	-0.018709304
32	0x3edeb9c2	0.43501097
33	0x3e60df98	0.21960294
34	0x3dad5748	0.08463913
35	0x3ec59967	0.385936
36	0x3e5b89c8	0.21439278
37	0xbe680976	-0.22659859
38	0x3e071c9a	0.13194504
39	0x3cea6997	0.028614802
40	0xbec1385d	-0.37738314
41	0xbdbaa97c	-0.09114358
42	0x3edbe576	0.42948502
43	0xbe9258ee	-0.28583473
44	0xbebd37ee	-0.36956733
45	0xbd59ece1	-0.05320442
46	0xbe18cc26	-0.14921626
47	0xbdd3e11b	-0.1034567
48	0xbf02744a	-0.50958693
49	0x3e2735e7	0.16329156
50	0x3ceb732d	0.028741444
51	0x3ef19ef3	0.4719158
52	0xbd9ca400	-0.07648468
53	0x3eaf79bd	0.34272566
54	0xbe65f910	-0.22458291
55	0x3d909593	0.07059779
56	0xbb4edffc	-0.003156661
57	0x3eb36d93	0.35044536
58	0xbe1aaf65	-0.1510597
59	0x3f038590	0.51375675
60	0x3e251d9b	0.16124575
61	0xbf04a966	-0.5182098
62	0x3ea59ccd	0.32346192
63	0x3e0073d1	0.1254418
64	0xbe004b94	-0.12528831
65	0xbe9cd37a	-0.30630094
66	0x3ee8ea0c	0.45491064
67	0xbe882b1f	-0.265954
68	0xbecc5f8c	-0.39916646
69	0x3e83baae	0.25728363
70	0xbeb66c75	-0.3562962
71	0xbddfc98a	-0.109271124
72	0xbe324910	-0.17410684
73	0xbe27f444	-0.16401774
74	0xbdb9c3b0	-0.090705276
75	0xbd0857e0	-0.03328693
76	0x3e020074	0.12695485
77	0xbe7a7d33	-0.24461822
78	0xbe0bb885	-0.13644607
79	0x3c85e817	0.01634602
80	0xbea14fe9	-0.3150628
81	0xbe80ed40	-0.25181007
82	0x3e2ebf42	0.17065147
83	0x3e9a2718	0.3010795
84	0xbeac1d36	-0.33616036
85	0xbeb52b14	-0.35384429
86	0xbe3bbd11	-0.18333842
87	0x3e629c57	0.22129951
88	0xbeda431a	-0.4262932
89	0x3ed8d24f	0.42347953
90	0x3e9cb434	0.30606234
91	0x3e888cf3	0.26670036
92	0x3e891815	0.26776186
93	0x3edf815a	0.43653375
94	0x3eec3cfa	0.4614027
95	0x3d313eac	0.04327266
96	0xbe447d1a	-0.19188347
97	0xbe1660f4	-0.14685422
98	0x3dab79ec	0.08372864
99	0xbdb61a00	-0.08891678
100	0xbe760687	-0.24025927
101	0xbe616cbf	-0.2201414
102	0xbed64288	-0.41847634
103	0x3eae86ea	0.34087306
104	0xbe367ea8	-0.17821753
105	0x3da333e5	0.079688825
106	0xbebb07d2	-0.36529404
107	0xbe3b2007	-0.18273936
108	0x3d79965f	0.06093442
109	0x3e93ef2c	0.2889341
110	0xbe9777f3	-0.29583701
111	0xbe615e65	-0.22008665
112	0x3e0aa640	0.13539982
113	0x3d27e3f0	0.040988863
114	0xbe6ee7db	-0.23330633
115	0xbe540744	-0.20705897
116	0x3e2b09c2	0.16702941
117	0x3ea9bb19	0.33150557
118	0xbed6515e	-0.41858953
119	0x3e95e5b1	0.29276803
120	0xbdf01d15	-0.11724297
121	0xbe337b93	-0.17527609
122	0xbe817795	-0.25286546
123	0x3ed8f35e	0.42373174
124	0xbe45d14b	-0.1931812
125	0x3e38484a	0.17996326
126	0x3eb8e18a	0.36109573
127	0x3ef7b2e1	0.4837866
128	0x3dfa0d4d	0.12209568
129	0x3ec96623	0.39335737
130	0x3def4fde	0.11685155
131	0x3df8276b	0.121168934
132	0xbf034d02	-0.5128938
133	0xbe4a2dd5	-0.19744046
134	0xbd6ba125	-0.057526726
135	0x3e8421ac	0.2580694
136	0xbec73d5a	-0.38913995
137	0x3e7d7375	0.24751075
138	0x3cbc8af1	0.023015471
139	0xbea99525	-0.331216
140	0xbe76d43d	-0.241044
141	0xbe9cacf4	-0.30600703
142	0x3eaab5b8	0.33341765
143	0x3e032dfd	0.12810512
144	0xbefd6a4b	-0.49495158
145	0x3dd88bd7	0.10573547
146	0xbe4f3fee	-0.20239231
147	0x3f02a2b9	0.51029545
148	0x3e9c2ea3	0.3050433
149	0xbeddd630	-0.43327475
150	0x3ec90e20	0.3926859
151	0x3cc1d4a2	0.023660962
152	0x3eac74a6	0.33682746
153	0x3e5739fb	0.21018212
154	0xbd66a69b	-0.05631123
155	0xbe7ebdc7	-0.24877082
156	0xbede853f	-0.43461034
157	0x3eb006ac	0.3438009
158	0xbed2ebfc	-0.41195667
159	0x3ed4a60d	0.41532937
160	0x3ef71cab	0.4826406
161	0xbe8cc73f	-0.27495763
162	0xbee90202	-0.45509344
163	0xbe98df58	-0.29857898
164	0xbe86a979	-0.26301172
165	0xbe0c4434	-0.13697892
166	0xbef0bc19	-0.47018507
167	0xbecaab1f	-0.3958368
168	0x3ca81d1a	0.02052169
169	0xbec16604	-0.37773144
170	0x3eb26536	0.34842843
171	0x3e0c6168	0.13709033
172	0xbeb1493f	-0.34626195
173	0xbe2cc6ad	-0.16872664
174	0x3e91f53a	0.28507406
175	0x3e74b146	0.2389575
176	0xbe9e54f3	-0.30924186
177	0x3e34315d	0.17596956
178	0x3e91463f	0.28373906
179	0xbe919d96	-0.2844054
180	0x3e2dceab	0.16973369
181	0xbebe245b	-0.37137112
182	0x3eb4d299	0.35316923
183	0xbefdde24	-0.49583542
184	0x3ea059fd	0.31318656
185	0x3e921204	0.2852937
186	0x3dae2c27	0.08504515
187	0x3ee56e68	0.44810796
188	0x3e8397ee	0.2570185
189	0xbe688e9e	-0.22710654
190	0x3ed25b45	0.41085258
191	0x3eb33aae	0.35005707
192	0xbc5b3629	-0.013379612
193	0xbc294745	-0.010331933
194	0x3ed5a60c	0.41728246
195	0xbbad2393	-0.005283782
196	0xbe088d21	-0.13335086
197	0xbe1961da	-0.14978734
198	0xbe0a05db	-0.13478796
199	0x3eb7841c	0.3584298
200	0xbea1fb73	-0.31637153
201	0xbd15e798	-0.036597818
202	0x3e0c7d54	0.13719684
203	0x3e43d777	0.19125162
204	0xbec0391e	-0.37543577
205	0xbed6c4f7	-0.41947147
206	0x3ef1dde3	0.472396
207	0xbcc3f881	-0.023922207
208	0x3eae04c0	0.33988
209	0xbcd0ab9c	-0.025472455
210	0xbddc172f	-0.107466094
211	0x3e794211	0.24341609
212	0x3ec6d21c	0.38832176
213	0xbdca048b	-0.09864148
214	0xbe91f3a6	-0.28506202
215	0xbed45bd6	-0.41476315
216	0x3db15382	0.08658506
217	0x3ed7b816	0.42132634
218	0x3f002519	0.50056607
219	0xbee364b0	-0.44412756
220	0xbe931e13	-0.28733882
221	0xbe8f7b16	-0.28023595
222	0xbe02edc3	-0.12786011
223	0xbee5ff6d	-0.44921437
224	0xbca20e3f	-0.019782184
225	0xbeb808a1	-0.35944083
226	0xbf04566a	-0.5169436
227	0x3e9d6c6f	0.3074679
228	0x3ed29a54	0.41133368
229	0x3c9bfc9e	0.019041356
230	0x3de2734e	0.11057149
231	0x3e083725	0.13302286
232	0xbe824b6e	-0.25448173
233	0x3da74ce8	0.081689656
234	0x3e1ed4c8	0.15510857
235	0x3e336528	0.17519057
236	0x3e4663c7	0.19374
237	0x3eb70726	0.3574764
238	0xbd93c253	-0.07214799
239	0xbd446cbe	-0.047955267
240	0x3d0a2cd6	0.033734165
241	0x3e6c0767	0.23049699
242	0x3c542c46	0.012950009
243	0x3ec1d237	0.37855694
244	0xbeb322d6	-0.34987515
245	0xbb5a4ced	-0.0033310011
246	0x3c88130c	0.016610645
247	0x3c97ac44	0.01851476
248	0xbe8d9661	-0.27653793
249	0x3e832dd4	0.25620902
250	0xbd8f6667	-0.070019536
251	0xbe9dca34	-0.3081833
252	0x3edfa5d4	0.43681204
253	0xbe0f0bb4	-0.13969308
254	0x3ec0d328	0.376611
255	0x3c1df7c0	0.009641588

layers.0.bias f4 [128]
0	0x3e4a0d33	0.19731598
1	0x3ee0cacc	0.43904722
2	0x3e93a939	0.28840044
3	0x3ef458fa	0.47724134
4	0xbe65b5c5	-0.22432621
5	0xbe5794dd	-0.2105288
6	0xbe868b8e	-0.26278347
7	0x3e3bfbcc	0.18357772
8	0xbef2f407	-0.47451803
9	0x3f0dee0b	0.5544135
10	0xbec2cb4f	-0.38045737
11	0x3eda6a43	0.42659196
12	0xbdd1cbc3	-0.102439426
13	0x3e2614b3	0.16218834
14	0x3ddfddd6	0.10930984
15	0x3efa7c4d	0.4892296
16	0x3e19e40f	0.15028404
17	0xbd8dbc63	-0.069206975
18	0xbebcf990	-0.3690915
19	0xbeb9283d	-0.36163512
20	0x3eefbca1	0.468236
21	0x3f0ac9b0	0.54214
22	0x3edf7c1f	0.43649384
23	0xbed2ca73	-0.41170081
24	0xbe168ccd	-0.14702149
25	0xbe7e40c5	-0.24829395
26	0xbee90d92	-0.45518166
27	0xbb526389	-0.0032102785
28	0xbe2c5d9f	-0.16832589
29	0xbdc5bc35	-0.09655038
30	0xbed859ec	-0.42256105
31	0xbe829af3	-0.25508842
32	0x3e6f786a	0.23385778
33	0x3eb0d808	0.3453982
34	0x3e48dfbc	0.19616598
35	0xbe598bd6	-0.2124475
36	0xbe5ba8c5	-0.21451099
37	0xbe6674ea	-0.22505537
38	0x3ebc7053	0.36804447
39	0x3eec028b	0.4609569
40	0x3e66500e	0.22491476
41	0x3ed199fc	0.40937793
42	0x3e557fbe	0.20849511
43	0x3e316ec9	0.17327417
44	0xbe94cb5e	-0.29061407
45	0xbdf5375c	-0.119734496
46	0x3ecef065	0.4041778
47	0x3dc30e74	0.09524241
48	0x3ed1011d	0.40821162
49	0x3efea93b	0.49738488
50	0xbcd7c183	-0.02633739
51	0xbe4dc7df	-0.20095776
52	0x3e296636	0.16542897
53	0xbe8a793a	-0.27045614
54	0x3e35b333	0.1774414
55	0x3d8923c1	0.06696273
56	0xbc23f92b	-0.010008137
57	0xbd9b1a1b	-0.075733386
58	0xbeed2888	-0.46319985
59	0x3ef9b991	0.48774388
60	0x3efc9ab0	0.49336767
61	0xbd9106a5	-0.070813455
62	0xbec8bee5	-0.3920814
63	0xbea8217c	-0.32838047
64	0xbe31c1d5	-0.17359097
65	0x3ef195ed	0.47184697
66	0x3eb23460	0.34805584
67	0x3d397e18	0.045286268
68	0x3cf5d3eb	0.030008277
69	0xbe1bf193	-0.15228872
70	0x3da65dbc	0.08123347
71	0xbe9f3861	-0.310977
72	0xbec8989d	-0.39178935
73	0x3ee2dfd4	0.44311392
74	0xbefebc40	-0.49752998
75	0x3e71782a	0.23580995
76	0xbdb694b7	-0.08915084
77	0xbe25b1aa	-0.16181055
78	0x3ef79c51	0.48361447
79	0x3ee8ea76	0.4549138
80	0xbe5fcb7c	-0.21854967
81	0x3e0eae0f	0.13933586
82	0x3ef049ca	0.46931297
83	0xbee460b2	-0.44605023
84	0x3d2ef563	0.042714488
85	0x3e96b37d	0.29433814
86	0x3e9ea67f	0.309864
87	0xbe891b94	-0.26778853
88	0xbe10bdc9	-0.14134897
89	0x3ea65ba4	0.3249179
90	0x3ef383a9	0.47561386
91	0xbeb9433f	-0.36184117
92	0xbee1aaa8	-0.44075513
93	0x3e633db6	0.2219151
94	0x3e6ce389	0.23133673
95	0xbecf9fc4	-0.4055158
96	0xbe9948ac	-0.29938257
97	0x3de8875d	0.113539435
98	0x3d8e3c6d	0.06945119
99	0xbc86a2fe	-0.016435143
100	0xbd6b008f	-0.05737358
101	0xbea14d4c	-0.31504285
102	0xbe0e6b6d	-0.13908167
103	0x3e63ac28	0.22233641
104	0xbd64b87a	-0.055839993
105	0xbe37b06d	-0.17938395
106	0xbecc3ba8	-0.39889264
107	0x3e666807	0.22500621
108	0xbdefdfd9	-0.117126174
109	0xbe9854e8	-0.29752278
110	0x3ea681cf	0.3252091
111	0xbd917400	-0.07102203
112	0x3d7794fe	0.060444824
113	0xbf00d597	-0.5032591
114	0xbeeb130b	-0.45912966
115	0x3b810e59	0.003938478
116	0xbeb29eba	-0.34886724
117	0x3dc3c879	0.095597215
118	0x3e7cdea7	0.2469431
119	0xbca6a009	-0.020339983
120	0xbed09fc4	-0.40746891
121	0x3ee5df1e	0.44896787
122	0xbd2f2961	-0.04276407
123	0xbd514ae6	-0.05109682
124	0x3e4a68ed	0.19766589
125	0xbec04cb2	-0.37558514
126	0xbe1eb902	-0.15500262
127	0xbf0094f0	-0.5022726

layers.2.weight f4 [2, 128]
0	0xbba20fbf	-0.0049457247
1	0x3dcbe989	0.09956653
2	0x3d9503c9	0.072761126
3	0x3d17d88d	0.037071753
4	0x3dcf38dc	0.10118267
5	0x3e00de8e	0.12584898
6	0x3cdd8a05	0.027043352
7	0x3df5731b	0.11984845
8	0x3d17663a	0.036962725
9	0x3d71c621	0.05902684
10	0x3cdc950b	0.026926538
11	0xbbc42fde	-0.0059871515
12	0xbb9bb4d2	-0.00475178
13	0xbd0af706	-0.033926986
14	0x3d508265	0.050905604
15	0x3dce2bda	0.10066958
16	0x3da4935b	0.08035918
17	0x3d0cabbd	0.03434347
18	0xbabf9700	-0.0014617145
19	0x3c53fc8f	0.012938633
20	0x3dc34161	0.095339544
21	0x3de32f54	0.110930115
22	0x3cf68553	0.03009287
23	0x3d55315e	0.052049033
24	0xbc8414ca	-0.016123194
25	0xbd3073ec	-0.0430793
26	0x3d9d6a4f	0.076862924
27	0xbb82250f	-0.003971703
28	0xbccf541c	-0.025308661
29	0xbd14009c	-0.036133394
30	0x3d885c45	0.06658224
31	0xbab22f49	-0.0013594414
32	0xbcaf446e	-0.021394935
33	0x3d05ac8b	0.032635253
34	0xbc7c97ca	-0.015417049
35	0x3dc7d177	0.09756749
36	0x3d7f3477	0.062305894
37	0x3d9b0097	0.07568472
38	0x3df9a617	0.12189882
39	0x3e00aeca	0.12566677
40	0x3d184b1d	0.03718101
41	0xbad34f5a	-0.0016121671
42	0x3d03fef5	0.032225568
43	0x3d98bbc1	0.07457686
44	0x3dba922f	0.091099136
45	0x3d99a289	0.07501704
46	0x3dc6226f	0.096745364
47	0x3df9c3c5	0.12195543
48	0x3d9fb9fb	0.07799145
49	0xbceec2ca	-0.029145617
50	0x3dc421a2	0.095767274
51	0x3ca2060c	0.019778274
52	0x3c900ad4	0.017583288
53	0x3d966e69	0.07345278
54	0xba85529e	-0.0010171717
55	0x3d9388c6	0.07203822
56	0x3cfa04f7	0.030519946
57	0xbd295290	-0.041338503
58	0xbd885a67	-0.06657868
59	0x3d656582	0.05600501
60	0x3df2f663	0.11863401
61	0xbd9caea4	-0.076504976
62	0x3d0fc977	0.03510424
63	0x3b663700	0.0035127997
64	0x3cfa5ba5	0.030561278
65	0x3cfd5ecd	0.030928994
66	0x3d980b9c	0.07424089
67	0x3d1a2781	0.03763533
68	0xbcd619a9	-0.026135283
69	0xbc9db267	-0.019250108
70	0xbd0dc7c0	-0.034614325
71	0xbcac2707	-0.021014703
72	0xbd38b595	-0.045095045
73	0x3dfc4d64	0.123194486
74	0x3d4bbd60	0.04974115
75	0x3dae0166	0.084963605
76	0x3dddbba8	0.10826808
77	0x3ce0e788	0.027454153
78	0x3dc1dd0d	0.0946599
79	0x3d81f061	0.06344677
80	0x3db0184b	0.085983835
81	0x3cce7119	0.025200414
82	0x3dc67f4a	0.09692247
83	0x3d8895f0	0.06669223
84	0x3dea5f37	0.11443942
85	0x3b67e798	0.0035385843
86	0x3a026b1a	0.0004975066
87	0x3cdfc90c	0.027317546
88	0x3d1aaa8c	0.037760302
89	0x3cef9747	0.02924694
90	0x3d4c5011	0.049881045
91	0x3dd1ae18	0.10238284
92	0xbc00e9af	-0.0078682145
93	0x3dd1ba40	0.102406025
94	0xbbf08231	-0.007339739
95	0x3d96e03f	0.0736699
96	0xb9ed92f1	-0.00045313642
97	0x3e005061	0.12530662
98	0x3e028c9e	0.12748954
99	0x3cdd666c	0.027026378
100	0xbd4148eb	-0.04718868
101	0x3d166361	0.03671587
102	0x3c5eaf96	0.013591668
103	0xbcad3f82	-0.021148447
104	0x3dac00cb	0.08398589
105	0x3db16699	0.08662147
106	0xbd744aaa	-0.059641518
107	0x3d9cc34d	0.07654438
108	0xbc2fb7c0	-0.010724962
109	0xbd3195c6	-0.043355726
110	0x3e097a86	0.13425645
111	0x3ce0d05e	0.027443107
112	0x3dd5e7c5	0.10444597
113	0xbd5d8414	-0.054081038
114	0xbc55e37a	-0.013054723
115	0x3dd46010	0.10369885
116	0xbac21835	-0.001480824
117	0x3b9b4c07	0.004739288
118	0xbd038e4f	-0.032118138
119	0xbcf4cfa0	-0.02988416
120	0xbccb18e1	-0.024792137
121	0x3df5909b	0.11990472
122	0x3db60ae2	0.088887945
123	0x3dad2cd9	0.0845582
124	0x3d0cb053	0.034347843
125	0x3d33b78e	0.043876223
126	0x3c2e463e	0.010636864
127	0xbc166cd5	-0.009181221
128	0xbbd09179	-0.006364998
129	0x3e056bb3	0.13029365
130	0x3cd5a911	0.026081594
131	0x3da2ae47	0.07943397
132	0x3b132b90	0.0022456385
133	0x3d85cb6f	0.065329425
134	0xbd34773e	-0.04405903
135	0xbcaec35e	-0.021333393
136	0xbd6da2fc	-0.058016762
137	0x3dbb18ee	0.09135614
138	0xbda0fda8	-0.07860881
139	0x3dc6ba33	0.097034834
140	0x3d6afdd1	0.057370964
141	0x3d38cb58	0.0451158
142	0x3dc925e4	0.0982168
143	0x3c967b0c	0.01836922
144	0x3e0d3345	0.13789089
145	0x3d30df49	0.04318169
146	0xbcbc16fc	-0.022960179
147	0x3bf739e9	0.007544745
148	0xbc609fd9	-0.013709986
149	0xbc274622	-0.010209592
150	0x38a5887b	7.8932346e-05
151	0x3d86f4f7	0.06589692
152	0xbd0c2aeb	-0.034220617
153	0x3b88f51e	0.004179611
154	0xbd4f0d63	-0.050549876
155	0x3dc84721	0.09779192
156	0xbc90c781	-0.017673256
157	0xbc15c795	-0.009141822
158	0xbb29f8b7	-0.00259356
159	0x3dc14706	0.09437375
160	0x3dc0f164	0.094210416
161	0x3d89d36e	0.0672978
162	0x3dc31a67	0.0952652
163	0xbd1408e5	-0.036141295
164	0x3cbd6bd0	0.023122698
165	0x3de78e61	0.113064535
166	0x3a224dbc	0.0006191393
167	0x3d44875d	0.047980655
168	0x3cd574bd	0.026056642
169	0xbce75029	-0.028236466
170	0xbcd3852e	-0.025820341
171	0x3cdd7f88	0.02703835
172	0xbcae617a	-0.021286715
173	0x3bdc5284	0.006723704
174	0x3d06055e	0.032719962
175	0xbb7641cc	-0.003757584
176	0x3c75ad0a	0.014994869
177	0x3da85d08	0.08220869
178	0x3dc8c297	0.0980274
179	0x3d19cb1f	0.037547227
180	0xbd31f7aa	-0.04344908
181	0x3db66618	0.089061916
182	0x3ba1d8d4	0.004939178
183	0x3c65332a	0.013989249
184	0xbd073c37	-0.03301641
185	0x3d3b3bf6	0.04571148
186	0xbd995b60	-0.074881315
187	0x3d1c8539	0.03821299
188	0x3dc697bf	0.09696912
189	0x3c1d909d	0.009616998
190	0x3d2470fd	0.040146817
191	0xbc38f188	-0.011288054
192	0xbd478ee4	-0.048720255
193	0x3dad90e7	0.084749036
194	0xbd1e2c75	-0.038616616
195	0x3d299245	0.04139926
196	0x3e06f055	0.13177617
197	0x3cae0728	0.021243647
198	0x3c3f4cab	0.011675994
199	0x3dcfca39	0.10145993
200	0x3ddfaa2a	0.10921128
201	0xbcd2e96c	-0.02574607
202	0xbd890dae	-0.06692062
203	0x3e007039	0.1254281
204	0x3dd777c6	0.10520892
205	0x3d677ec5	0.05651738
206	0xbd1fbd98	-0.03899917
207	0xbc8f7f10	-0.017516643
208	0x3dbe9011	0.09304822
209	0x3d3becf6	0.04588028
210	0x3db6dbdb	0.08928653
211	0x3ca488bb	0.02008473
212	0x3db4aa8f	0.08821594
213	0x3da3f177	0.0800504
214	0x3e094e40	0.13408756
215	0x3d74bfa6	0.059753083
216	0x3e019bb3	0.12657051
217	0x3822c1b7	3.880422e-05
218	0x3de7b481	0.11313725
219	0xbb13d802	-0.002255917
220	0xbbdace50	-0.0066774264
221	0x3d46efc2	0.048568495
222	0xbd250cb0	-0.040295303
223	0xbd8ad2a1	-0.067784555
224	0xbbcde04c	-0.006282842
225	0x3e013e7e	0.12621495
226	0x3dcfefb1	0.101531394
227	0x3dddd44f	0.1083151
228	0x3a9b8284	0.0011864458
229	0x3dac4a70	0.08412635
230	0xbc0b33b4	-0.008496214
231	0x3de0ee34	0.10982934
232	0xbcf13056	-0.029441994
233	0x3d7cf2e2	0.06175507
234	0x3d13e0b0	0.03610295
235	0x3dd5b95b	0.104357444
236	0x3d9941cb	0.07483252
237	0x3d86798f	0.06566154
238	0x3db523b3	0.088447
239	0xbd0969ec	-0.03354828
240	0x3c779075	0.015110125
241	0xbcfe6c2f	-0.031057445
242	0x3dd3c85b	0.10340949
243	0x3d7ac081	0.061218742
244	0x3d90daaa	0.07072957
245	0x3d802172	0.06256379
246	0x3df2fdf0	0.11864841
247	0xbc08b83f	-0.008344709
248	0x3d61215f	0.054963466
249	0xbcf324c4	-0.029680617
250	0x3e035c4d	0.12828179
251	0x3d4681f4	0.048463777
252	0xbc9ed7f2	-0.01939008
253	0xbc2dabee	-0.010600073
254	0x3d0e1827	0.034691002
255	0x3beaf668	0.007170487

layers.2.bias f4 [2]
0	0x3e067cef	0.13133596
1	0x3d49aac8	0.049235135
